model/bert_dnn_8.model (torch, 4865 bytes, 1 tensors)

weight f4 [1, 768]
-0.053676818 -0.10657724 0.028356705 -0.046657383 0.018020421 -0.041292295 -0.032721113 0.029717732
-0.023614544 0.04088228 0.071183175 -0.009447272 -0.049178902 -0.04332337 -0.00016830864 0.005396981
0.043233372 0.017462768 0.009340689 0.0066141137 -0.08276124 0.033862785 0.04009407 -0.00080067094
0.017257873 0.05679248 -0.01761782 -0.122620784 0.03430826 0.06077023 0.01949555 0.007183287
-0.018207587 0.084426165 -0.09385179 -0.1882556 -0.06589935 0.17099059 0.027104074 0.05741117
-0.100853816 0.0034951803 0.021417582 -0.004830957 0.011209916 0.0052114455 -0.016904812 -0.06739617
-0.16751511 -0.0072232415 0.1487221 0.0020530026 0.008736606 -0.22498548 -0.048873078 0.05387698
0.11708063 -0.003450663 0.13637699 -0.033459187 0.13373494 -0.05402298 -0.048199214 0.024505086
0.046437345 -0.047645155 0.011819462 0.078716524 0.040628906 0.0015265273 -0.06777716 -0.11010468
-0.016415324 0.015701054 0.079640664 -0.07903818 -0.051279433 -0.055954874 0.05167872 0.10015063
0.036661685 0.03214275 -0.06626461 0.12507097 -0.0131290415 -0.102524 -0.03431067 0.0026354087
0.030505449 -0.04513056 0.21322304 0.036763597 -0.022129206 0.051038522 -0.061755937 -0.0838695
0.02245778 0.04610726 0.009848277 0.016432444 0.10185497 0.022167204 -0.036294043 -0.06751121
-0.01578887 0.036826186 -0.00083592604 -0.0113665685 -0.02479403 0.0154255545 0.096924186 0.035735898
-0.026331972 -0.036109913 0.0021065488 0.09066725 -0.011816402 -0.030936345 0.0045791445 0.10925792
0.079778545 -0.03334562 0.03441635 -0.06057196 0.053575564 0.022794612 0.030162556 0.07671893
0.00047784217 -0.042454373 0.009721677 0.0054572495 0.054087576 0.10662677 0.002797011 0.13983628
-0.15565151 0.015873326 -0.01746669 0.068354 -0.13877735 0.016161023 -0.03736236 -0.110713854
-0.009363416 -0.08888344 -0.012601092 0.016879546 0.11454414 0.06702843 -0.02031995 0.07629133
-0.03323443 0.106461264 -0.0737658 0.0028707236 0.021501668 0.060665958 0.058767702 -0.0064501725
-0.0077647995 -0.06861018 0.028098444 0.048751954 0.009700673 0.095745385 -0.026122479 0.016064053
0.054712817 0.05673511 0.17587616 0.08488344 -0.09330675 -0.024028517 0.052665133 0.054708242
0.118914686 -0.00012522389 0.04639163 0.026640449 0.012373377 -0.01514359 0.0070421267 0.110522844
0.010243881 0.019860921 -0.052513015 -0.09026902 0.021584421 -0.0044435435 -0.11294912 0.03344753
-0.012662795 0.016793717 -0.12650758 0.06222935 0.04438244 -0.025071064 0.09265598 0.029045714
-0.022683106 0.05525356 0.0036206765 -0.018036822 -0.11367683 -0.0011133862 0.00446936 0.0047707628
0.07558921 -0.08531548 0.030333027 0.06673245 0.0027973936 0.07369603 -0.04692208 0.0181824
0.0082100285 0.024600927 0.022740932 0.008270105 0.043583382 -0.041303225 -0.11650435 0.06918911
0.017985575 0.016435303 -0.0053340686 -0.016577618 -0.012881684 0.047650244 -0.009785053 -0.014962339
0.15930207 -0.070075825 -0.103842 0.049949825 -0.0871268 -0.031038217 0.007974078 0.0013682375
-0.0058525675 0.1255465 0.03882298 -0.06891526 -0.05463177 -0.0034744353 -0.019189471 -0.029529674
-0.014339046 0.019621676 -0.030290473 0.02826015 -0.12782463 0.007421827 -0.037721515 -0.09802443
00000000: 39dc 5bbd 2b45 dabd 524c e83c d01b 3fbd
00000010: 909f 933c 1c22 29bd 9306 06bd 9a72 f33c
00000020: 4a73 c1bc 2d74 273d 7cc8 913d bbc8 1abc
00000030: d16f 49bd d973 31bd 027c 30b9 28d9 b03b
00000040: 7a15 313d 140e 8f3c b009 193c 35bb d83b
00000050: ba7e a9bd b4b3 0a3d ae39 243d 1ee4 51ba
00000060: 6260 8d3c 3b9f 683d 3f53 90bc 9b20 fbbd
00000070: d186 0c3d 34ea 783d 22b5 9f3c c761 eb3b
00000080: 1428 95bc a0e7 ac3d 5e35 c0bd 13c6 40be
00000090: 3df6 86bd 2818 2f3e 5d09 de3c fa27 6b3d
000000a0: 728c cebd 650f 653b ed73 af3c 014d 9ebb
000000b0: cca9 373c c6c4 aa3b f67b 8abc 0107 8abd
000000c0: 1589 2bbe f1b0 ecbb 9b4a 183e ab8b 063b
000000d0: fb23 0f3c 9862 66be 232f 48bd 1cae 5c3d
000000e0: f8c7 ef3d 8524 62bb 69a6 0b3e 800c 09bd
000000f0: d0f1 083e 3347 5dbd 8a6c 45bd e4be c83c
00000100: 1635 3e3d 9127 43bd 6ba6 413c 2136 a13d
00000110: 7f6a 263d c215 c83a c0ce 8abd 907e e1bd
00000120: 6e79 86bc 7f9f 803c a51a a33d c5de a1bd
00000130: 620a 52bd f030 65bd 11ad 533d c61b cd3d
00000140: 902a 163d 1ea8 033d bdb5 87bd 9b12 003e
00000150: 311b 57bc 1af8 d1bd 5889 0cbd d2b6 2c3b
00000160: 90e6 f93c d2da 38bd 2457 5a3e 6d95 163d
00000170: 4f48 b5bc c50d 513d cbf3 7cbd c6c3 abbd
00000180: 61f9 b73c f7da 3c3d ab5a 213c 559d 863c
00000190: 5799 d03d ff97 b53c 10a9 14bd 5143 8abd
000001a0: a957 81bc 0ed7 163d 0c22 5bba d83a 3abc
000001b0: d91c cbbc 77bb 7c3c 3080 c63d ce5f 123d
000001c0: 26b6 d7bc fde7 13bd 060e 0a3b c0af b93d
000001d0: 9599 41bc 386e fdbc a60c 963b 9ec2 df3d
000001e0: ef62 a33d 6b95 08bd 29f8 0c3d 4e1a 78bd
000001f0: 0d72 5b3d c4bb ba3c 7717 f73c d01e 9d3d
00000200: e486 fa39 a3e4 2dbd ab47 1f3c bad2 b23b
00000210: ef8a 5d3d 235f da3d 0f4e 373b 3e31 0f3e
00000220: 1c63 1fbe c708 823c 4e16 8fbc 2ffd 8b3d
00000230: a61b 0ebe 1f64 843c 4609 19bd f2bd e2bd
00000240: 0369 19bc 8508 b6bd d074 4ebc f946 8a3c
00000250: 1e96 ea3d 3446 893d 0676 a6bc a13e 9c3d
00000260: d320 08bd 5d08 da3d 8612 97bd c022 3c3b
00000270: 4424 b03c de7c 783d 67b6 703d f85b d3bb
00000280: dc6f febb 7e83 8cbd b52e e63c 21b0 473d
00000290: 92ef 1e3c 2816 c43d cffe d5bc c398 833c
000002a0: 8c1a 603d 1363 683d e118 343e 5ed7 ad3d
000002b0: 9c17 bfbd 74d7 c4bc 65b7 573d c015 603d
000002c0: 8b89 f33d 884e 03b9 2605 3e3d 123d da3c
000002d0: b4b9 4a3c d21c 78bc a4c1 e63b cd59 e23d
000002e0: f3d5 273c 5fb3 a23c e317 57bd f7de b8bd
000002f0: d0d1 b03c 259b 91bb de51 e7bd 4700 093d
00000300: 9d77 4fbc fa92 893c 348b 01be 34e4 7e3d
00000310: 5dca 353d d561 cdbc 6bc2 bd3d 47f1 ed3c
00000320: ecd1 b9bc 8f51 623d df48 6d3b f5c1 93bc
00000330: 66cf e8bd 0bef 91ba b673 923b 0f54 9c3b
00000340: 84ce 9a3d e2b9 aebd f87c f83c 06ab 883d
00000350: 7a54 373b f2ed 963d 5e31 40bd 42f3 943c
00000360: 5b83 063c e287 c93c 314b ba3c 567f 073c
00000370: 7d84 323d 922d 29bd d599 eebd 05b3 8d3d
00000380: 7c56 933c 54a3 863c 69c9 aebb c9cd 87bc
00000390: b30d 53bc e72c 433d 7d51 20bc 9924 75bc
000003a0: 1520 233e ea83 8fbd 1dab d4bd 3098 4c3d
000003b0: 896f b2bd dc43 febc b5a5 023c 6f56 b33a
000003c0: e5c6 bfbb 438f 003e d804 1f3d 7223 8dbd
000003d0: 90c5 5fbd 5ab3 63bb 3d33 9dbc 37e8 f1bc
000003e0: 51ee 6abc a3bd a03c ba23 f8bc d581 e73c
000003f0: 76e4 02be cc32 f33b e081 1abd 08c1 c8bd
