model/lstm_5.model (torch, 671569 bytes, 17 tensors)

weight_ih_l0 f4 [256, 64]
00000000: f99d 0fbc f022 42bd 2cc6 c5bd b0c6 3f3d
00000010: 8417 58bd e3da f6bd 922f 013d 72eb cdbd
00000020: 31a0 9b3a e840 5cbd bfbd 2c3d c703 4f3d
00000030: dd85 c53c 755e 1dbd 274f 143d ea6f c2bd
00000040: e485 01be 1b90 92bd b8b1 56bd 39cf 27bd
00000050: 592a ebbd 25f5 b0bc 2ec8 9ebd b344 e23d
00000060: 82c1 7cbc 70a9 21bd a424 e93d b641 023e
00000070: b658 94bb 00d1 b13c 8a01 ad3d 6b1a 8e3d
00000080: 742b 8b3d cbeb 8b3c b148 d2bd a9e2 7cbd
00000090: c372 16be 1c3b 19bd 7471 ebbd de90 d63d
000000a0: 47d8 883d ce8a 45bc 5bd2 e93d 9619 2ebd
000000b0: cd34 f8bd 2604 ad3d 1e36 e73b ce72 01be
000000c0: 352e 1b3d 88d6 1dbc a8d4 2ebd b3e0 b03d
000000d0: 8e45 c3bc e3c7 283d bdf0 d2bd 6c8c 943d
000000e0: 9464 07be 9f32 3b3d d4e2 ec3d a426 c13b
000000f0: f206 ea3c 7923 9e3d fc91 8fbd 71e9 363e
00000100: 557b 6a3d 41f5 c93d 96e3 0dbe f279 b3bc
00000110: a4fb 9f3c 34da e6ba 1569 ae3d efac 1cbe
00000120: 940c d5bd 7bcc 9e3d 917e 963d 8b16 74bd
00000130: d4e6 84bc 018e d53d 5b32 e83d 1c2d ce3d
00000140: 17c8 9a3d becb 8ebc 54cb b7bc 986e 03be
00000150: dedf 56bd c51f 9dbc 5a29 edbd cb2e c5bd
00000160: 2a97 45bd c487 2abd 9c43 b1bd e4bf d3bd
00000170: e0e6 83bd ec12 ef3c 20c0 0a3e 86a9 0bbe
00000180: f9e3 97bc 3734 1dbe ae1f 293d c007 88bc
00000190: 1be8 c53b 4008 6a3c 44d5 533d ad2b 8fbd
000001a0: cbab 5bbd 06fe bbba 5581 903d 24dc 903d
000001b0: 56ff b1bd 3c83 0a3e 507d b93d 9d49 08be
000001c0: 2ab0 ca3c 9230 14bd ef94 c5bd 301d 743c
000001d0: 7fb6 393d 5f7e 243d 845e 7b3c b710 e53d
000001e0: 6f07 2ebd 7a1e d53c 76ba a6bd 55bb b43c
000001f0: c32c 95bc f22b a9bc 4289 9fbc 3d50 53bd
00000200: fb7c af3d f60c 49bd 0ed1 dabc 2b4c fabd
00000210: c22c a8bd 103a d5bd 673a d9bc 2ba0 743d
00000220: d4f3 6abd e165 c33d d295 673b fb8a 65bd
00000230: 62ff a7bd ed02 90bd 13aa 863c 73d8 8a3d
00000240: 8ff5 ee3d 1ddf 503d c557 593d c030 b53d
00000250: 2e5f dcbd f00d 9c3c 30f7 863b ab22 9a3d
00000260: eb99 513c c914 7cba 87cc 9bbd c7fa 0abe
00000270: de24 0ebd 5de2 893d c996 923d f3cf a1bc
00000280: a62e 30bd 9f70 26bd db8f 29be e80d f1bc
00000290: 9b7c b93d c799 3dbe d125 22bd e994 5b3c
000002a0: d964 653d 1270 6d3d 25e4 a33d 41fd 39bd
000002b0: 2124 67bd 1724 9e3d 3394 083d aeac c53d
000002c0: 65a9 41bc 6b15 d9bc 074b a03d 72e3 c93c
000002d0: 8918 dd3c 43bd 5ebd 345f f83c b876 ffbd
000002e0: 8266 ce3d 5d21 aa3d 57a0 073d cc0a 43bd
000002f0: 29be b23d e6c5 cf3d cfb3 bc3d 0a6e cdbd
00000300: cdf5 10be d3e5 403d c8d1 123d 0512 493d
00000310: a068 573d 51f9 aabc 75ed c8bd a088 9cbd
00000320: 4352 f8bd 85a9 b83b 127c aabc 2743 043e
00000330: f586 a2bd 019a bf3d a37c ef3d 7254 f33c
00000340: 9c28 f9bd a5a9 0f3d 654a d0bc b57a cfbd
00000350: 40b4 48bd 44f5 88bd a049 b03d 2472 00be
00000360: 7cc4 083e 6cbb be3d 0c92 c33d 018d be3c
00000370: 519a 01be 1aac 2ebc c616 b03d 879b 94bc
00000380: 6132 aebd 366e 9bbd ea2c fc3c 6aa8 e13c
00000390: f83f dcbd 24e3 713d a364 bbbd 2e2b f43c
000003a0: f123 d13c 2713 063d 91e4 d8bd a976 fabc
000003b0: f1c5 8f3d 6d79 f1bd 0986 ff3d 1d91 35bc
000003c0: 5e7a cebd 533f c33a 782a ea3d 9547 01be
000003d0: b0e8 823d 7b5c a4bb 5e09 c2bd 4c7f 9c3c
000003e0: e65d a9bd a9f4 ca3d ef59 e9bb 6bb2 cc3b
000003f0: d693 bb3d a75e 9b3d 0ceb 46bb 7869 d13c
-0.008765691 -0.0473966 -0.09656939 0.046820343 -0.0527568 -0.12053468 0.031539507 -0.10054673
0.0011873302 -0.053772837 0.042173143 0.05054071 0.024111683 -0.03842016 0.036208298 -0.09494002
-0.12648731 -0.07156392 -0.05241558 -0.040969107 -0.114826865 -0.021601269 -0.07753025 0.110482596
-0.015426995 -0.03946823 0.11383942 0.12720379 -0.0045271767 0.021706104 0.08447559 0.069386326
0.067953974 0.017080208 -0.10267771 -0.061739597 -0.14692216 -0.037409887 -0.11496249 0.1047685
0.06681877 -0.012057019 0.11417075 -0.04250487 -0.12119446 0.08448057 0.007056012 -0.12641451
0.037885863 -0.009633668 -0.042683274 0.08636608 -0.023836877 0.04120625 -0.102998234 0.07253346
-0.13221961 0.045702573 0.115667015 0.005894499 0.028567765 0.077216096 -0.07010266 0.17862488
0.057246525 0.098612316 -0.13856348 -0.021908734 0.019529171 -0.0017612637 0.085161366 -0.15300344
-0.1040279 0.07753845 0.073483594 -0.05959181 -0.016223349 0.10427476 0.113377295 0.10067198
0.07557695 -0.017431136 -0.022435822 -0.12835157 -0.05245959 -0.019180188 -0.11580153 -0.09628066
-0.048239864 -0.041633382 -0.086554736 -0.103393346 -0.0644052 0.029183827 0.13549852 -0.13638887
-0.018541323 -0.1535195 0.041289978 -0.016605258 0.006039632 0.0142841935 0.051717058 -0.06990752
-0.05363063 -0.0014342673 0.07055918 0.070732385 -0.086912796 0.13526624 0.090571046 -0.13309331
0.024742205 -0.036179133 -0.096475475 0.014899537 0.045340057 0.04015958 0.0153423585 0.11184829
-0.042487558 0.026015509 -0.08141033 0.022061983 -0.01820982 -0.020650838 -0.01947463 -0.051590193
0.0856876 -0.049084626 -0.026711013 -0.12221559 -0.08211662 -0.10411465 -0.026517106 0.05972306
-0.05736144 0.09540916 0.0035337103 -0.056040745 -0.08203007 -0.07031808 0.01643852 0.06779566
0.1166793 0.050994027 0.05306222 0.08847189 -0.107603416 0.019049615 0.0041188225 0.07526144
0.012793045 -0.00096161343 -0.0760737 -0.13572226 -0.034703128 0.067326285 0.07157666 -0.019752478
-0.043013237 -0.040634748 -0.16558783 -0.029425576 0.0905697 -0.18515693 -0.039586846 0.013402202
0.05600438 0.057968207 0.080024995 -0.045407537 -0.05643094 0.07721727 0.03334446 0.09652077
-0.011820172 -0.02649947 0.0782681 0.024644587 0.026989238 -0.054379713 0.030318834 -0.12473816
0.100781456 0.08307145 0.033111896 -0.04761772 0.087276764 0.10145168 0.09213983 -0.10030754
-0.14156266 0.047094177 0.035844594 0.04908945 0.052590013 -0.020870836 -0.09810916 -0.07643247
-0.12125065 0.0056354427 -0.020811114 0.12916242 -0.07935897 0.09355546 0.116936944 0.029703353
-0.12165949 0.035073895 -0.0254261 -0.101308264 -0.049000025 -0.06687406 0.08607793 -0.12543541
0.13356203 0.09313092 0.095493406 0.023260595 -0.12656523 -0.010661149 0.08598094 -0.018140567
-0.08505703 -0.075893804 0.030783135 0.027546126 -0.107543886 0.05905451 -0.09150054 0.029805746
0.025529834 0.03273311 -0.105904706 -0.03057416 0.07020176 -0.11790738 0.12476737 -0.011081961
-0.100819334 0.0014896191 0.114338815 -0.12624963 0.06392038 -0.0050159073 -0.09474443 0.019103669
-0.08269863 0.099099465 -0.0071213166 0.006246855 0.09159057 0.07586413 -0.0030352501 0.025562987

weight_hh_l0 f4 [256, 64]
00000000: 152e 203d 1d5b b13d d199 e73c d943 b23d
00000010: 6433 9bbd 2a8e 353d c34a 8e3b c2df fdbc
00000020: eb5a e53d 214a 9c3d 5fc2 a53d 893f 873d
00000030: 4b5f f43d 3e59 a9bc 0623 03bc bc3a 663d
00000040: 2f5e 8fbd 8c09 48ba 6e7e ea3d d52c bd3d
00000050: 3a32 a13d 15b2 d2bd 0f38 dd3d f8c1 a0bd
00000060: 745d 173d 2716 a6bd 9449 76bd 4302 46bc
00000070: a943 013c d8c0 3ebd dc89 973d e3e4 d63d
00000080: 748e 7f3d fa31 95bd 65db 86bc b8a4 e9bc
00000090: 4630 343a d30f 643d f192 d4bc d867 8ebd
000000a0: 2e45 31bd b49a bc3d b3e6 d6bd 58ad 18bd
000000b0: 0126 0c3e e2cf 003c b334 8b3d ff0a 51bb
000000c0: 4976 033e 3b89 8dbd 6203 a03d 373d 043d
000000d0: 6da5 c0bd 4b65 f2bd 1257 113e 5eca 24bb
000000e0: b6e8 6cbd a204 303e 2f77 e03d 1a85 893d
000000f0: e92b adba fb76 ab3d 58a4 c13d 9b27 66bd
00000100: 383e fabd 2d5e a6bc c5f0 793c effe 0f3d
00000110: 2f07 cb3d c18d 35bc cf88 adbd 2fa2 ea3d
00000120: 6660 27bc efa8 1b3e 486c b8bd 0a7e 093e
00000130: 3f7f d83c baf2 0abd 0ebe c6bd 2f11 313d
00000140: 9d8d ed3d 4742 37bd e73d 62bd fbe0 c1bd
00000150: 6538 0d3c 94de d8bd ae9d 793d bc84 933d
00000160: e889 c33d 9786 833d 20ad 36bd fc8f bdbd
00000170: 77c5 9cbd 9e5f 35bc 0501 9abd bd85 9e3c
00000180: d75d 353d 7e72 c33b f9d5 05be cfcb 8d3d
00000190: 17ed d33d fb61 92bd 4ffa 40bd aa16 8cbc
000001a0: 6a30 c6bd 2c7c f43b bb36 113d b21a 8d3d
000001b0: ccf7 95bd 5e32 7fbd 1ed6 9f3c da4a 7bbd
000001c0: 2312 803d 47ef 91bd 5644 e13b 4295 843d
000001d0: 6b1e 763d 7b51 543d 1983 10be b62a 6c3c
000001e0: 73a0 ba3c 48cf 2e3d 4987 98bd 67f7 24bc
000001f0: 9419 4dbd 300d dcbc 1a68 d7bc 2b9f 6c3d
00000200: 771f 42bd bc37 083c 13f6 99bd dad9 cbbd
00000210: d5e8 9e3d ebca ef3d 10db 5a3c 1284 e4bc
00000220: 3e1b 793d 3eff 24bd 9827 963c c65d 61bd
00000230: fd03 bd3c 072f 1ebe 3868 c43d d703 6abc
00000240: 829d 18bc 7fd8 d73d 82cc 993d 4ac1 da3b
00000250: b876 003d e146 3ebd 5a27 b93c 9af8 74bd
00000260: 2dc3 883d 9309 a5bd 8b51 f83d 12d9 d33c
00000270: 1e68 a13d 95e8 19be 85df 1f3d 288d d7bd
00000280: d892 dabd 54ed 073e c1d7 48bc eaf4 ac3d
00000290: b1fd df3c 33ce fa3d a0fa 423d 30ca 98bd
000002a0: 0004 36bd 8add bdbd 5810 803d 86a8 a63c
000002b0: 8d79 04be 4594 3bbd d1d0 04be 1093 e03d
000002c0: 200b 2b3c fd07 363c eaac b43d 17e9 acbd
000002d0: 437e a73d a9df 10bd e399 8bbd 9ebc 59bc
000002e0: 93b0 08be 92c2 e13c 951d 903c f964 54bd
000002f0: 3917 863d 23ee 923d 25b1 26bd 3f0e adbd
00000300: 5d8d a73c d4be 873d 4b0c 62bc 21c3 af3d
00000310: 4cda b83a eda9 203e 6274 a1bd ca02 fc3a
00000320: c8ca 5abd 3311 4fbc e80f a63d 3228 fdbd
00000330: de9a 01bb 6482 993d 11ed debd 6c06 893d
00000340: 184e 80bd cb3c 843d 37f9 87bd fe87 fcbb
00000350: f695 74bc bf27 003e 211e c53b 093b 903d
00000360: 10f9 4abd 9a5d 1dbd d8a9 debd a974 3f3d
00000370: aaeb 1ebe 21b3 e23d a040 f63c 1731 ffbd
00000380: 0573 c2bd 8b58 0b3c e2ac bbbd 7398 0dbe
00000390: 2e59 6c3d 184f 7d3d 0243 c03d 54fb 02be
000003a0: a586 613d da2c 9bbd 1c9c 32bc 2ba6 013e
000003b0: 987b 3cbc e392 6dbd 0fc5 a4bd 5598 f93d
000003c0: 1a19 9abb 48c3 83bd d757 68bd 1823 be3b
000003d0: 73a0 163e 251a 313d b561 09bd 9036 c33c
000003e0: 2823 d3bd e471 df3d 2f0b 0d3d 5b0a 123e
000003f0: 7d19 b03d 0d79 923d ebbf 64bd f003 d8bd
0.039106447 0.086599566 0.028271588 0.08704347 -0.07578161 0.04432503 0.0043424084 -0.030990485
0.11198982 0.076313265 0.08093714 0.06603915 0.11932238 -0.020672437 -0.008003956 0.056208357
-0.07000386 -0.0007630817 0.11449896 0.09237067 0.07870908 -0.10287873 0.10801708 -0.078494966
0.03695436 -0.08109694 -0.060128763 -0.0120855 0.007889667 -0.04657063 0.073993415 0.104928754
0.062391713 -0.07284923 -0.016462037 -0.028520927 0.00068736484 0.055679154 -0.025948973 -0.069534004
-0.043278866 0.09209195 -0.10493221 -0.03727469 0.13686372 0.007862063 0.06797161 -0.0031897423
0.12838091 -0.0691094 0.07813145 0.03228494 -0.094065525 -0.11835726 0.14193371 -0.0025145034
-0.057839118 0.17189267 0.109602325 0.0671484 -0.0013211939 0.08372303 0.09455174 -0.056190114
-0.122188985 -0.020308578 0.015255158 0.035155233 0.099134795 -0.01108116 -0.0847336 0.11456715
-0.010215854 0.15201162 -0.09005028 0.13426986 0.026427863 -0.03392289 -0.09704219 0.04322928
0.11599276 -0.04474094 -0.055234816 -0.0946674 0.008619403 -0.105893284 0.06094139 0.072030514
0.09547788 0.06422155 -0.0445987 -0.092559785 -0.07654851 -0.01107016 -0.07519726 0.01935088
0.044278946 0.0059645763 -0.13069905 0.06923639 0.10347956 -0.071475945 -0.047113713 -0.01710065
-0.09677203 0.0074610915 0.035452586 0.06889857 -0.07322654 -0.062303893 0.019511279 -0.06135068
0.06253459 -0.07125717 0.0068746014 0.06473781 0.060087603 0.05183552 -0.1411251 0.01441448
0.022781586 0.042678148 -0.074476786 -0.010068751 -0.05007322 -0.026861757 -0.026294757 0.057768982
-0.04739329 0.008314069 -0.07517638 -0.09953661 0.07759253 0.117086254 0.013357893 -0.027895007
0.060816996 -0.04028248 0.018329427 -0.05502107 0.02307319 -0.15447627 0.09590191 -0.014283142
-0.009314897 0.1053934 0.0750971 0.006675874 0.03136322 -0.046454314 0.022601772 -0.059807397
0.06677852 -0.08058467 0.12124928 0.025860343 0.07881187 -0.15030129 0.039031524 -0.1052497
-0.106725395 0.13274127 -0.012258471 0.08445151 0.02734265 0.12246361 0.047602296 -0.07460439
-0.04443741 -0.09270771 0.06253117 0.02034403 -0.12936993 -0.045795698 -0.12970282 0.1096555
0.010439664 0.011110303 0.08822043 -0.08442896 0.081783794 -0.03536955 -0.06816461 -0.013289599
-0.13348608 0.027558599 0.01759223 -0.051854108 0.06547398 0.07174327 -0.040696282 -0.08449983
0.02045315 0.066281945 -0.013796876 0.0858214 0.0014103143 0.15689822 -0.078835264 0.0019226905
-0.053416044 -0.012638378 0.081085026 -0.12361182 -0.0019776146 0.07495573 -0.108850606 0.06690678
-0.06264895 0.06456908 -0.06639331 -0.007706641 -0.014928332 0.12515162 0.0060155545 0.0704251
-0.04955393 -0.038419344 -0.10872239 0.046742115 -0.15519586 0.110693224 0.030060112 -0.12460535
-0.094945945 0.008504997 -0.09163834 -0.13827686 0.057702236 0.061843008 0.09387781 -0.12791187
0.055060048 -0.07576914 -0.010901477 0.12661044 -0.011504076 -0.05800141 -0.080453984 0.12187258
-0.0047026994 -0.06433731 -0.056724396 0.0058025233 0.14709644 0.043237824 -0.033540446 0.023829728
-0.1030944 0.10910395 0.034434494 0.14261763 0.085986115 0.07151995 -0.05584709 -0.10547626

bias_ih_l0 f4 [256]
00000000: b45d dfbd d943 833d 67e3 e5bb 9dac c93d
00000010: 8510 57bc e891 d2bd 8ea1 3abd 9fdb 1d3d
00000020: eecd bcbc f0bb f2ba f29c 20bd b70d 0dbe
00000030: 0177 d43d 847d 1dbd 8619 d73d c5c4 e43d
00000040: 239b aa3d 9edb 73bd 092e ba3d fa07 c3bd
00000050: 3ddc 983d 9ee3 a5bd a94b 013e a9db b8bd
00000060: 2505 d5bd 0580 97bd 7ca7 c1bd 1ce6 04bb
00000070: 2798 fd3d 021f a03c 845c 97bd df1f a0ba
00000080: f476 803d 005f fe3c 8ca0 e1bc d201 ccbd
00000090: f9c9 853d 330b a3bd aace b0bc cd3b c93c
000000a0: 2885 bd3d 018f 233d 5ead 8cbd ce18 963c
000000b0: becb fdbd 28b7 aa3a a761 bfbd 3a40 843c
000000c0: f95d 57bb 0f6f 00bd 5197 0c3e 2850 b9bd
000000d0: 3352 32bd e7c7 d8bd a893 303d e8e9 473d
000000e0: f56d a9bd 1411 25bc 88d7 c13d a99a a03c
000000f0: a071 013c ed33 71bd 3b47 eb3d 216c a53d
00000100: 3e4a c8bd 07c4 803d 9697 bd3d 3324 a3bd
00000110: 3f22 823d 4b36 be3c ab2e ed3d 62da b9bd
00000120: c70f 033e b7ea 043e d8c5 ef3d 51a1 f43d
00000130: 869c 903c 8718 ccbd ce9b f33d cf49 c6bd
00000140: c93e 44bd 3f42 913d 16bd e3bd 1bee 023d
00000150: 63dd eabd 661e 483c a88d ea3d 7211 a83c
00000160: a42a c0bd 8898 083e dd53 b8bd 38bb a1bd
00000170: 377e 223d 46af 58bc 9df6 0d3e 0560 933d
00000180: 6ecb 143e e08e 84bc f161 903d 0e02 fb3d
00000190: db04 d63d 6b21 67bc ed00 7ebb e050 f93c
000001a0: 6a69 ddb9 c157 c0bd 29b5 6d3d 79af f93b
000001b0: c097 9bbd 9103 7b3d 2f66 ac3b 5520 38bd
000001c0: 9ce7 193e f83d c6bd 52d4 ffbd 16bd cdbd
000001d0: 02f5 cbbc b31c ba3c 2b58 df3a dbce 823d
000001e0: 42c9 aebd 29a7 063e 12b0 fc3d 44d7 26bd
000001f0: 16bb 2e3b cc59 553d 34b1 1c3d 1aa0 38bd
00000200: c808 c93d a6c6 023e 2998 7dbd 8182 c13c
00000210: 9009 dcbd 12e3 b9bd 1826 c7bd 5437 1a3b
00000220: 08b1 3a3d fe11 42bb 0683 0ebe 972e e03d
00000230: dd44 a6bd 34d1 293d 9308 08bc a7d8 52ba
00000240: 6a08 b93c 280e 793d f9f1 debd 79d0 983b
00000250: c1e4 0b3e 2468 cabc 6762 d4bc f2e5 e43d
00000260: e2c8 7d3b 8c6c b1bd c508 cc3b 4d3d 1d3d
00000270: 686d b93d 9ed5 bfbd d1e1 ddbd 56ec 6abd
00000280: a88e 5f3d f59b 06be fb2b 23bc 0d38 e43d
00000290: b462 e93d 1e2a aebd c599 b6bc 9785 b33d
000002a0: 9667 0abe 7d8d c43d 53aa 333b 78fc 47bd
000002b0: 9ada e73c 3304 e23a 8a2f 2bbd b1d2 ee3c
000002c0: f48f 9cbc 0b5e f33d c083 00bd e8d9 aebd
000002d0: 5dd8 7a3b f863 c13c 028d e63d a88a cebd
000002e0: fd22 b03d c8a8 30bd 667a eabd 70d3 9dbc
000002f0: bfe8 eabd af42 47bd fa13 dbbd 7c5e 043d
00000300: e3d8 32bd c0e4 b4bb 5bb3 76bd 8d26 af3b
00000310: 4a7a 283d 5c5f 6a3c 8204 c9bd 27d7 0c3e
00000320: 6597 c53d 7eff 693c ffbc 033d 76e7 f63d
00000330: 8d55 813d d08c 743d b61f ff3d 46e8 033d
00000340: b3df b7bd c583 e8bd 34d0 bfbd 5c96 c03d
00000350: 9946 11bd 7f93 c2bd 657f ef3d 737d c53c
00000360: 37ce ae3d 245b 22bd aa03 dfbd 08b8 d2bc
00000370: 4e21 cebd 6de9 d23c fc1a 1ebd a2ef 0c3e
00000380: 4d26 6d3c 6508 703d 4d0d dc3c fe2d 083e
00000390: 35f7 e3bc 696a 403d 0a9d ec3d bc95 343d
000003a0: 1c14 9c3c 8fc3 f33d 20ae 1c3d da77 a63d
000003b0: 2b27 a73d 7396 8cbd b06f e13c 644f e3bd
000003c0: 1836 123e 2a81 093e 0bbc 84bb 370f 703d
000003d0: e3e7 8f3d 0a29 e5bd a5cf 813d a021 be3c
000003e0: 57f8 a8bd abee 8f3d 1fdb 85bd a3d5 213e
000003f0: 3ed2 a9bd 84cc a4bd 0b93 033d 88c5 663d
-0.10906544 0.06409425 -0.007015634 0.098473765 -0.013126497 -0.10281736 -0.045564227 0.038539525
-0.023047414 -0.0018519145 -0.039212175 -0.13774763 0.10374261 -0.03844978 0.10502915 0.11170343
0.08330371 -0.059535615 0.09090812 -0.09523006 0.07463882 -0.08100055 0.12626518 -0.09026272
-0.10401372 -0.07397465 -0.09455773 -0.0020278757 0.123825364 0.019546036 -0.07390693 -0.001221653
0.062726885 0.031051159 -0.027542375 -0.09961285 0.06532664 -0.079611205 -0.02158292 0.024564648
0.09253913 0.0399313 -0.06869005 0.018322375 -0.12392376 0.0013024556 -0.093447976 0.016143907
-0.0032862409 -0.031355914 0.13729598 -0.09048492 -0.043535423 -0.10585003 0.043109566 0.048807055
-0.08272926 -0.0100748725 0.094649374 0.019604998 0.0079006255 -0.05888741 0.114881955 0.080772646
-0.097797856 0.06287389 0.09257428 -0.07965889 0.06354188 0.023219248 0.11581167 -0.09074856
0.12798987 0.12980162 0.117076576 0.11944831 0.017652761 -0.09965616 0.11894952 -0.096820466
-0.04791144 0.070927136 -0.1112005 0.031965356 -0.114680074 0.012214279 0.114528 0.020516131
-0.09383133 0.13339436 -0.09000371 -0.07897037 0.03967115 -0.013225382 0.13863607 0.07196049
0.14530727 -0.01618141 0.07049931 0.12256251 0.10450145 -0.014107089 -0.0038757876 0.030434072
-0.00042230944 -0.09391738 0.058034096 0.007619795 -0.075973034 0.061282698 0.0052612047 -0.04495271
0.15029758 -0.09679788 -0.12491669 -0.10045831 -0.024897102 0.022718763 0.0017039826 0.06387111
-0.08534481 0.13149704 0.1233827 -0.040732637 0.0026661805 0.05208759 0.03825493 -0.04507456
0.09816128 0.12771091 -0.06191269 0.0236218 -0.107440114 -0.09076513 -0.09724063 0.0023531513
0.045578986 -0.0029612775 -0.13917169 0.10946386 -0.081186034 0.041459277 -0.0083028255 -0.0008043148
0.02258702 0.060804516 -0.10885996 0.0046635238 0.13661481 -0.024707861 -0.025925828 0.11176671
0.0038724472 -0.08663282 0.0062266313 0.03838854 0.09054071 -0.09366916 -0.10834087 -0.057354294
0.054579407 -0.1314543 -0.009959216 0.11143503 0.11395779 -0.08504127 -0.02229012 0.087657146
-0.13516077 0.09597299 0.0027414754 -0.048824757 0.02830248 0.0017243683 -0.041793384 0.0291532
-0.019111611 0.11883172 -0.031375647 -0.08537656 0.0038275935 0.02360724 0.11257364 -0.1008504
0.086004235 -0.043129712 -0.11449127 -0.01926586 -0.11470174 -0.04864758 -0.106971696 0.03231667
-0.04366387 -0.005520433 -0.06022964 0.005345172 0.04113225 0.014304962 -0.09815313 0.13753949
0.09648017 0.0142821055 0.032162663 0.120558664 0.06315146 0.0597046 0.1245722 0.032203935
-0.08978214 -0.11353258 -0.093658835 0.09403679 -0.035467718 -0.09500789 0.116942205 0.02410767
0.08535426 -0.0396377 -0.10889371 -0.025722519 -0.10064946 0.025746072 -0.038599953 0.13763288
0.014474464 0.058601756 0.026861811 0.13298795 -0.027827838 0.04697648 0.1155339 0.04408811
0.019052558 0.11902534 0.038251996 0.081283286 0.081617676 -0.068646334 0.027519077 -0.11099127
0.14278448 0.13428178 -0.004050737 0.05860826 0.07026651 -0.11189468 0.06338433 0.023209393
-0.08250492 0.07027944 -0.06535935 0.15804152 -0.08292054 -0.08046821 0.032122653 0.056340724

bias_hh_l0 f4 [256]
00000000: 4427 efbd 1786 86bd ea07 02bc 2143 8cbd
00000010: 3b80 b33d ac62 b53d abe9 253d 6ded e23d
00000020: 4abc f03d 62d7 b53d 0351 a63c 46ec cbbd
00000030: 5872 7a3d 1093 dbbb fe66 823d d387 1cbd
00000040: b339 6d3d 9794 43bc d632 91bd a603 98bd
00000050: b605 a3bd 4813 483d 2742 d2bc 7c70 453d
00000060: cb7a bbbd d42d 713d 0063 073e 02e1 4abc
00000070: c516 a1bd 27b8 283c d32d 903d 951e 55bc
00000080: c104 eb3d ce0a 59bd cd96 803d f1a0 aabb
00000090: 56ab b6bd 1972 7d3d 867d 22bd fbb4 bb3d
000000a0: 8772 de3d be47 f139 8e7a 05be ccd9 91bd
000000b0: cb6f 843d f962 373d 53b7 adbb 46b1 7fbd
000000c0: f58c fcbc eec5 3bbd 1c1a 003e afad 5b3d
000000d0: 15de 393d dc42 303d 77a9 6cbc 72a9 463d
000000e0: 3b4f 083d 20e7 6dbd dbd9 943d f18c 64bd
000000f0: 21a4 263d a4ac cf3d 61e0 ccbc 22d4 42bd
00000100: 6c2e e63d 1f5f 243d f936 093e 9532 b73d
00000110: 5aba df3d e538 063e 87c5 9f3d e67b 89bd
00000120: a1f6 053e 9443 48bd adb8 f63d 20f1 27bd
00000130: c8c2 93bd e55e 853b 34e7 bc3d ef1c e73d
00000140: 3a46 d6bd 2770 11bd c22c bfbd 6e8e 733d
00000150: 61f7 063d e981 443d ec91 0ebd 205b 43bd
00000160: 7fcd 7b3d ac10 d33c f4c4 29bd 3f9a bc3b
00000170: 27eb 133d 7c04 ac3d 80d9 d63d 8cec e13d
00000180: a564 483d 172f 7abd 6e4d 443d 88dc 6cbd
00000190: a92c 283c d2a7 073c 67d9 fdbb 1fc3 a3bc
000001a0: 9834 3d3d 6080 dfbc 33e8 5f3d 0780 933d
000001b0: 6bcc 573c a053 5a3d 330b a0bd c94b 773b
000001c0: a35a 083d c482 473d a331 afbd 4a24 b03d
000001d0: 1ebd 80bd e608 e93d 8c2b f43d 796f 1c3a
000001e0: 39d3 31bd d1dd df3d a8a9 bf3d 1ada eb3d
000001f0: f508 a63d 318f 053d e8eb 533d a9b8 acbc
00000200: 5eb1 cd3d feaf cc3d 487b 883c e18d 48bd
00000210: cada f5bd 43ff dabb 4086 a2bd fca3 873c
00000220: b613 893d 08c7 26bd ce0c a2bd 357d a03d
00000230: 7a18 ff3d 2de8 9d3d f31c 24bd 5d2f 283d
00000240: f725 c13c f142 0d3e 5747 ef3c e013 c03d
00000250: 9567 3e3d 401e 473d 944c c33c 63af 0bbd
00000260: fda9 053e 9a9a 513d fc05 e8bb eb81 003e
00000270: 1b20 cbbd 88f8 ee3d 862b 88bd 5ee3 d6bd
00000280: 3f48 c3bd 3389 583d 3dce 77bd 54f6 843c
00000290: d6cd b73d 5c14 953d 8329 b33d fc17 f93d
000002a0: f486 a83d fe38 21bd 11c7 e63b 24af c23d
000002b0: cf49 893c e284 ea3d 9e44 a9bd 0b42 a13c
000002c0: 5a5f dc3d b953 af3d 5127 f53a 2d99 17bd
000002d0: 18cb a93c 8939 b5bd ceb8 ee3d a2e4 893d
000002e0: 1aa1 9abd 608a babd 54dd 99bd 2207 053e
000002f0: bcc5 df3d 139c f23d 7d7e 223d 0875 eb3d
00000300: 411c e33c 5bc6 f93b 1b1a a2bd 50cf 663d
00000310: 55f3 eebc 5472 86b7 6c12 eb3d 4da0 493d
00000320: 77e3 51bd 78a0 a03c 93ad cebc 3866 5ebc
00000330: af62 ac3d 2f1c 7e3b d54d 0a3e 520f 3cbd
00000340: 0a4f 9bbc b24b 7fbd 52c3 c1bb a3c7 033b
00000350: bfb8 03bd df65 9cbc 7fcd 023e d596 9c3d
00000360: 7ab0 823d 8122 80bd b861 17bd 00ce 9c3d
00000370: 9798 0f3c 3ffa a33d 7211 8dbc 2eca d83d
00000380: 06af 90bd 92a7 e5bd 9181 abbd f111 6e3b
00000390: 61ae f23d 84dd 893d 6f49 e5bd e385 d13d
000003a0: 28af 28bb 462e 49bd 2255 cc3d f6f8 53bd
000003b0: c1ca a1bd 2cf7 b03d adcf 533d 58f2 b23d
000003c0: abff 08bd bca6 b8bd f871 45bd 005d d2bc
000003d0: cf39 cd3d f88c c03d 4f4e 733d 2278 733d
000003e0: d076 c63d 2c2a 393c 1dac 44bd 4943 67bd
000003f0: b040 133e 1307 16bd f3ef d63c c87d 0b3d
-0.11677411 -0.06568544 -0.007936457 -0.06848741 0.087646924 0.08856711 0.040506046 0.110804416
0.11754663 0.08878972 0.020302301 -0.09957175 0.061144203 -0.006700881 0.063673005 -0.03821547
0.057916354 -0.011937282 -0.07089774 -0.07422571 -0.07960074 0.048846513 -0.02566631 0.048202977
-0.0915428 0.058881596 0.13221359 -0.012382748 -0.07865671 0.010297812 0.0703999 -0.01300778
0.11475516 -0.05298882 0.06278763 -0.005207174 -0.089193985 0.06187639 -0.03967049 0.09165379
0.10861688 0.00046020554 -0.13035032 -0.071216196 0.06466635 0.044772122 -0.005301395 -0.06242492
-0.030828932 -0.045843057 0.1250996 0.053632434 0.04537781 0.043032512 -0.0144447 0.04850144
0.033278685 -0.058081746 0.07268115 -0.055798475 0.04068387 0.101403505 -0.025009336 -0.047565587
0.11239323 0.040129777 0.13399877 0.08945195 0.109242156 0.13107641 0.07801347 -0.06713085
0.13082363 -0.048892573 0.12046943 -0.04100144 -0.07214886 0.00407015 0.09223786 0.112848155
-0.104626134 -0.035507347 -0.09334709 0.059462003 0.032950763 0.047975454 -0.03480713 -0.047694325
0.061475273 0.025764786 -0.041447595 0.0057556923 0.03611293 0.08399293 0.104907036 0.11031446
0.048924107 -0.061080065 0.047925405 -0.057827502 0.010264554 0.008279758 -0.0077468636 -0.019990502
0.046192735 -0.027282894 0.0546648 0.07202154 0.013171296 0.053302407 -0.07814636 0.003773438
0.033289563 0.048708692 -0.08554389 0.086006716 -0.06286071 0.1137865 0.119223684 0.00059675385
-0.04341433 0.1093098 0.09358531 0.11516209 0.08107177 0.03260726 0.05173865 -0.021084147
0.10043596 0.09994505 0.016660348 -0.04896343 -0.12004621 -0.0066832616 -0.079357624 0.016557686
0.06693213 -0.040717155 -0.079125986 0.07836381 0.124558404 0.077103 -0.04006667 0.041060794
0.023577673 0.13795067 0.029208822 0.09378791 0.046485502 0.048612833 0.023840226 -0.03410281
0.13053127 0.05117283 -0.0070807915 0.1254956 -0.09918233 0.11668497 -0.066489264 -0.104925856
-0.09535264 0.05286522 -0.06049942 0.01623074 0.08974807 0.07279274 0.08748152 0.12162778
0.08228865 -0.039360993 0.0070427735 0.09506062 0.016758827 0.11451127 -0.08265041 0.019684812
0.10760374 0.08560891 0.0018703734 -0.037011314 0.020726725 -0.088488646 0.116563424 0.067330614
-0.07550259 -0.09108424 -0.07512918 0.12991002 0.10926387 0.11846175 0.03967141 0.11496931
0.027723433 0.007622523 -0.079151355 0.056350052 -0.029168764 -1.6027283e-05 0.11478123 0.04922514
-0.051242318 0.019607767 -0.025229251 -0.013574176 0.0841726 0.0038774123 0.13506253 -0.045913048
-0.018958587 -0.062328048 -0.0059131766 0.0020108006 -0.03215861 -0.019091545 0.12773703 0.076459564
0.063813165 -0.06256581 -0.036958426 0.07656479 0.008764408 0.08006715 -0.017220233 0.10585438
-0.07064633 -0.11213602 -0.08374322 0.0036326612 0.118496664 0.06731704 -0.11195647 0.10230615
-0.0025739167 -0.049116395 0.09977175 -0.0517511 -0.079 0.08640894 0.051711727 0.0873763
-0.03344695 -0.09016177 -0.048204392 -0.025679111 0.10020792 0.09401888 0.059400853 0.05944074
0.096906304 0.011301558 -0.048015703 -0.056460653 0.14380145 -0.03662784 0.026237464 0.0340555

weight_ih_l0_reverse f4 [256, 64]
00000000: 7b6e 04be 264f 8abd d294 1c3d 44cf 243d
00000010: 3afe 3b3d 0047 f73d 6081 4f3d 9525 7d3d
00000020: 83d0 dc3d 5810 033d d731 c3bb b5c7 7e3d
00000030: 4267 a23d 3fcc 49bd 1b79 03bd 28f4 f2bd
00000040: 982b 14be 3cb2 993c 068d b3bc 29d1 b93d
00000050: 37e4 78bd 429e 5c3d 9cb3 be3d 0410 bc3c
00000060: 2440 af3d db34 a4bd 0e49 e3bd 958d bfbd
00000070: f38c a23b d135 a63d 0ef6 673d 27ad e43b
00000080: a65b 803d 6b2b a1bd c3bc b83c 283d 76bd
00000090: 051a 1bbe 28cf 7cbd cbbb 87bd 4e6d 9c3d
000000a0: ed55 adbd c785 19be cc1b 9fbc fd76 653d
000000b0: 10ae debc 67a2 e4bc f164 023d a4a1 edbc
000000c0: b3b7 b53d f204 0b3d 471c 40bd 2f98 9f3d
000000d0: 22da 9cbd d635 7abb 1351 ba3c 4e90 d33d
000000e0: d0f5 c13d ef3f dabd 8e6a fb3c c756 123e
000000f0: 26aa 933d 7745 bd3b 24e0 d83d c73f d33c
00000100: 9be1 8e3d 62fa 26bd 9184 1cbd 493b 003e
00000110: 722a e73d 6d35 c93c dabd 3abb fe26 6a3d
00000120: 6bfe c93d 3fd2 ffbc da6b cdbd 8f0f f53d
00000130: 704f 35bc 06cb fb3d e006 813d 0c0d b93d
00000140: a08b 93bd a279 043d f576 a5bd 0a12 5e3d
00000150: 27f1 4bbc 3391 c43d 9fb2 11bd 1c92 aa3d
00000160: ea4b 0d3e 456d 793c e1a3 fb3d cc93 89bd
00000170: 276c 563d 8e7e cdbd ac46 11be b86b ed3c
00000180: 7913 2ebd cfa8 1b3e ff57 873d d156 cc3d
00000190: 6cd3 cf3d cd4c 3f3d 467c debd 5c7c b9bd
000001a0: ebe6 1ebd ca97 0abd bdb3 cebd fbf0 15be
000001b0: 1568 d03d 4326 133e 765e a9bd f294 e5bd
000001c0: cc4d 953d 5bf2 e7bc 2af7 cb3d 9a82 c9bd
000001d0: 2ae5 cebb dd25 5cbc e651 843d 4eae cebb
000001e0: 133f 923d 2a88 e8bc 63ad 953d d62a ae3d
000001f0: 6822 d8bd 4181 bcbd b720 c3bc 0092 3fbc
00000200: bfca fa3d f90d 213c 6d57 95bd f061 2dbd
00000210: 1147 093e 21f1 5abc d165 e63c 101b 093d
00000220: c858 febc 378e 513d 3b1d 053a b710 9ebd
00000230: 61d5 053e 8aef 63bd 5c66 1b3e e747 b0bd
00000240: 7d71 3dbd c30a b53d 367a 9bbd 5cc4 ecbd
00000250: 7084 a53c 3604 783d fd59 9f3c 6859 8b3d
00000260: 4c3e f43d dd1a b7bd da25 e73c 1a95 b9bd
00000270: 4064 db3d bdee 073e fc8a d23c 1b1c aa3d
00000280: 3ef9 b3bd eaa6 d33d 2dc2 e03d 1c6c cbbd
00000290: 7dd3 09bd 3f04 0cbd 3af7 57bd f1e1 c8bd
000002a0: 5576 acbd 0205 ba3c 7dc0 fc3d e8d6 f7bd
000002b0: fbea 5abd d366 493d f026 e93d 6407 ff3b
000002c0: 1002 d1bd b78e c8bd c30c fbbc 86f6 febd
000002d0: 9ba9 f43d 947c 1bbd e259 12be 2a66 86bd
000002e0: 7b62 803d b6d6 623d c763 14bc b854 7f3d
000002f0: e746 733c a0a5 5cbd 28b7 353d 461e bcbd
00000300: 204d ba3d f30d a8bc 85e2 253d 7b84 89bc
00000310: 4421 cbbd 2e0d a03d 82c2 0c3e a3be d1bc
00000320: 187c 2b3b 6214 373b bbe0 dd3d 4be7 41bd
00000330: d5d4 33bc eee9 c23d 0f7f e43d 9a5f e7bd
00000340: 4fec 863d 8d4b 8abc 9ca5 173d 229a 9fbb
00000350: e0c8 d6bd 53d1 7fbd 4e57 393c 156c a6bd
00000360: 3657 8dbc 9e12 43bd cc50 c3bd c344 c0bc
00000370: 0af6 97bd b907 1fbd 35a5 333d b475 f63c
00000380: f8f5 5f3c b798 f6bc 480a cbbd d68b 60bd
00000390: 140f febd 20a1 c0bd eab1 a13b 3ba1 283c
000003a0: 225e babd 8a3c 03be 9578 06bb e786 f23d
000003b0: f08b 8b3c 3193 023d 3e12 94bc b4c3 863d
000003c0: a431 42bd 36fa bd3d b0c3 54bd 8cb6 613a
000003d0: f5fe e03c 64b3 a8bc bfbf 5cbd 5260 22bd
000003e0: 1215 e83d 8602 adbd b9cb fcba 184a 713d
000003f0: f9d5 373d cabe 913d abf8 86bd cebf 06bd
-0.1293277 -0.067533776 0.038227864 0.040236726 0.045896746 0.12074089 0.05066049 0.06180342
0.10781958 0.03199801 -0.005956869 0.062202174 0.07929851 -0.04926705 -0.032097917 -0.11862975
-0.14469755 0.018761747 -0.021917831 0.09073097 -0.060764518 0.053861864 0.093116015 0.022956856
0.08557156 -0.08017894 -0.110979185 -0.093531765 0.00496065 0.081157334 0.05663114 0.006978649
0.062674806 -0.078696094 0.022550946 -0.060116917 -0.15146644 -0.061720997 -0.066276155 0.07638036
-0.08463655 -0.14992438 -0.019422434 0.05602168 -0.027182609 -0.02790947 0.031834546 -0.02900774
0.088729285 0.033940263 -0.046901967 0.077926986 -0.07658793 -0.0038179061 0.022743737 0.10330258
0.09470713 -0.106567256 0.030690458 0.14290915 0.072101876 0.005776103 0.105896264 0.025787247
0.069766246 -0.040766127 -0.038212363 0.12522615 0.11287393 0.024561608 -0.0028494508 0.057166092
0.098629795 -0.031228183 -0.10030337 0.11965858 -0.011066303 0.12294583 0.063001394 0.090356916
-0.07204366 0.03234256 -0.0807933 0.054216422 -0.012447632 0.09598007 -0.035570737 0.083286494
0.1379849 0.015223806 0.12287117 -0.06717643 0.052349236 -0.10033904 -0.14187115 0.028982028
-0.04249904 0.15201114 0.06608581 0.099774964 0.101477474 0.046704102 -0.10863547 -0.09056923
-0.03879444 -0.033836164 -0.10092876 -0.14642708 0.10176102 0.14370064 -0.0826997 -0.1121005
0.07290229 -0.028313806 0.09959252 -0.098393634 -0.0063139396 -0.013436762 0.064609334 -0.0063074
0.07140937 -0.02838524 0.073084615 0.08504264 -0.105534375 -0.09204341 -0.02381931 -0.011692524
0.12245702 0.0098299915 -0.07292066 -0.04232973 0.13406016 -0.013363154 0.028124722 0.033473074
-0.031048194 0.051161017 0.0005077903 -0.07718032 0.13069679 -0.055648364 0.15175766 -0.08607464
-0.04625081 0.08839943 -0.07591669 -0.1156089 0.020204753 0.06055089 0.01945209 0.06804162
0.11925945 -0.08940671 0.028216291 -0.09061642 0.107124805 0.13274665 0.025701039 0.08306142
-0.087877735 0.10334571 0.10974536 -0.099327296 -0.033648957 -0.034183737 -0.052726008 -0.0980872
-0.084210075 0.022707466 0.12341402 -0.12101537 -0.05344675 0.049170326 0.1138438 0.0077828635
-0.102054715 -0.09792846 -0.030645734 -0.12449364 0.11946412 -0.037960604 -0.142921 -0.06562455
0.06268784 0.055380546 -0.009056992 0.062336653 0.014848447 -0.05386889 0.044364125 -0.09185462
0.09096742 -0.020514464 0.04049923 -0.016786804 -0.09918454 0.07815014 0.13746074 -0.025603598
0.0026166495 0.0027935733 0.108338796 -0.04733972 -0.010976036 0.09517275 0.11157047 -0.112975314
0.06588041 -0.016881729 0.03702317 -0.004870669 -0.104875326 -0.062455487 0.011312319 -0.08126084
-0.0172535 -0.047625177 -0.09536895 -0.023470288 -0.07419975 -0.038825724 0.043858726 0.030085422
0.013669483 -0.030102117 -0.0991407 -0.054820858 -0.1240522 -0.09405732 0.004934539 0.010292347
-0.09099986 -0.12816063 -0.002051865 0.11842137 0.0170345 0.031878654 -0.018075105 0.06580296
-0.047410622 0.092762396 -0.051944435 0.00086102705 0.027465323 -0.020593353 -0.0538938 -0.03964264
0.11332144 -0.08447747 -0.0019286788 0.058908552 0.044881795 0.07116468 -0.065903984 -0.032897763

weight_hh_l0_reverse f4 [256, 64]
00000000: 310b aabd 7189 d43c 513e 163b 6848 a0bd
00000010: 7318 1bbc fa4c 65bc cc0d 9b3d 2341 2fbd
00000020: d2e3 c23c a9e5 5cbc 8ac6 b53b 629a 9f3b
00000030: 5600 fe3c 4c80 903d acdb 1fbd 94a7 edbd
00000040: 8f56 c1bd 78b4 fc3d f60e 2a3d a285 553c
00000050: d316 093c 77c3 73bd f90c e2bb dc67 863d
00000060: 1774 12bd 572a 9a3d a74e ee3d b8dc 0ebd
00000070: bcca 083b d3c0 5abd e423 883d 5c4f bdbd
00000080: 314d 8e3d a3ec 0e3e 9511 3c3c da44 b0bd
00000090: fc01 3ebd 43cd 393d 6ba2 b63d 6c78 83bc
000000a0: 7bf5 db3d e2a1 a33d 4349 50bd d2a5 123c
000000b0: 3158 af3d 8d5d 91bd b4ee c3bd e057 f83d
000000c0: 212b ac3d bf2e 1b3b b762 bfbd 3396 2f3d
000000d0: 6a61 213d b45c 9abc 3364 cb3d 01ef eb3b
000000e0: 7c80 bbbd 1a90 a23d 36a5 d6bd 238e c8bd
000000f0: 96d2 d73d 2304 c13d 4041 02bd 35f0 033e
00000100: 4fca 94bb 17cd 8f3d f68e 56bc 8658 0ebd
00000110: 473f df3b 0815 a63d 20e2 47bd d68f be3b
00000120: 0224 da3c 1851 98bd cf58 febc aab8 983d
00000130: 4e96 3f3b 2d5c ea3d 08f0 b9bc fa83 83bd
00000140: 6eaa 1f3e 3aff c33d 379a 993d 7424 e7bd
00000150: 29d9 5b3d f1aa e5bc df9b 32bd 554b d5bc
00000160: ea1c 2b3d 717e b53d 9a70 9cbd 4cda 3abd
00000170: 9d0e cfbc 428c 93bd 30ad 223d 88c5 9dbd
00000180: fec0 d43d b2c9 34bd 4d04 133d f049 66bd
00000190: 68b0 c43d 7b31 5f3d 1c48 ebb8 ec8f 4abd
000001a0: e60f 97bc 48b6 e93d e98b 2a3d 3c82 083c
000001b0: 3c3b 1dbd c2f4 273d 1a96 7a3c 2c2d 023e
000001c0: 4e88 e6bd b60b a83c 5abc 6a3d 71a8 92bd
000001d0: 020d acbd bf0f c43b 966e b43d 3714 e8bd
000001e0: fcc7 643d f488 ae3d cf7f 1cbd 857b 043c
000001f0: 79b5 093e 60ca 07bc 189b 82bd fbd7 1fbd
00000200: e5f7 77bd ad1e 803d 1d87 743d d809 683d
00000210: 0543 1f3d 76cb a8bd aea3 023e b3a1 debd
00000220: 1597 eebd d812 80bd 047d 67bd 685a cfbd
00000230: 3f82 fcbc 40a1 c3bd 7990 11bd 3197 b8bc
00000240: 1307 be3c 7541 42bd 8efa 56bd dea1 a23d
00000250: 4676 9c3d 1105 9d3d a545 d5bc bcd8 8bba
00000260: a46c 3e3c f254 6f3b 2c58 d1bd deb5 093e
00000270: a8e9 bf3d aa7a 513d 33c1 803d d002 ad3d
00000280: c938 8f3c fe16 d23d ed70 d53d 92f5 27be
00000290: 14e9 d8bd 4eaf 3ebc fe67 ab3d 9823 2c3d
000002a0: 21ae f8bd 3267 a23d 32e7 fdbd 4ce1 003e
000002b0: d430 e03d e0fa 1b3b 5aee 9b3d d723 573d
000002c0: 0856 8bbd 1493 813d cd4e 21bd 0b1f f9bd
000002d0: ec69 c03d 9d72 103b a77d e7bb ad4f 173d
000002e0: af6c 09be 25b6 40bd b5c9 e13c 9939 2abd
000002f0: 2cca debd ffb8 a33d 2290 4ebd 0be3 cabc
00000300: d152 1f3e ac1f d6bd 8583 f23d b318 c03b
00000310: 6d5a b43b 70de a8bd 896d 1b3d 6cd3 adbd
00000320: 04be 1d3d 06f2 5c3d ba06 e7bc 8bcf 593d
00000330: 71ca d73d cc0e cc3d 587c 45bd 005e 1a3d
00000340: d7dc cd3d f7c6 d1bd aade 07be fd20 153c
00000350: 31e2 b93c 0669 4c3d bc17 b0bd ff9a e03d
00000360: 5d8d cf3d d173 33bc 8301 97bd 9379 c63d
00000370: f81a c1bd e432 03be d433 ccbd d428 c03d
00000380: 74be 10bd c0b9 e53d 2fc4 303d c12b 8bbd
00000390: 0fea 72bd 996c 05be 979c 9dbc 3464 853d
000003a0: 05d5 babd cba0 dc3c a1f7 c73d 132d b5bd
000003b0: 7e4b 763d 9bfe 01bc c244 a23c 4342 04bd
000003c0: f1d0 b4bd 59ee 88bd cc14 d0bd ca91 e0bd
000003d0: 9873 453d 9689 c83b 3a75 ac3d b805 cbbd
000003e0: 65d6 a73d b52c 0c3d d789 083d 1d3e a13c
000003f0: 9200 b23d 37f3 663d 1008 97bd d205 2cbe
-0.08302916 0.025944443 0.0022925327 -0.078263104 -0.009466278 -0.013995403 0.07570991 -0.04278673
0.023790274 -0.01348249 0.0055473493 0.004870699 0.03100602 0.07055721 -0.039027855 -0.116042286
-0.09440338 0.12339109 0.041518174 0.013032349 0.008367258 -0.05951258 -0.006898519 0.06562778
-0.035755243 0.07527607 0.116360955 -0.034878463 0.0020872792 -0.053406548 0.066474706 -0.09243652
0.06948317 0.13957457 0.011478801 -0.086068824 -0.04638861 0.04536177 0.089176975 -0.016048633
0.10740181 0.07989861 -0.050851118 0.008950667 0.08561743 -0.070979215 -0.095670134 0.12126136
0.08406664 0.0023678986 -0.09345 0.04286785 0.039399542 -0.018843032 0.09931221 0.0072001223
-0.09155366 0.079376414 -0.1048073 -0.097927354 0.10538213 0.09424617 -0.03180051 0.128846
-0.0045407186 0.0702154 -0.013095608 -0.03475239 0.006812963 0.0810948 -0.048799634 0.0058154864
0.026628498 -0.074373424 -0.031048207 0.07457097 0.0029233876 0.114433624 -0.022697464 -0.06421657
0.15592358 0.09570165 0.07500117 -0.1128625 0.053673897 -0.028035613 -0.04360568 -0.026036898
0.04177562 0.088620074 -0.076386645 -0.04561834 -0.025275523 -0.072044864 0.039715946 -0.07703692
0.10388373 -0.044137664 0.035892773 -0.056222856 0.09603959 0.054490548 -0.000112191046 -0.04945366
-0.018440198 0.114117205 0.041637335 0.008331832 -0.03838657 0.041004904 0.015294576 0.12712544
-0.11256467 0.020513397 0.057308532 -0.07161034 -0.084009185 0.0059833224 0.08810155 -0.11331981
0.055854782 0.085222155 -0.038207825 0.00808609 0.13448133 -0.008287996 -0.06377238 -0.039024334
-0.060539145 0.06255851 0.059699167 0.056650013 0.038882274 -0.08241932 0.12757751 -0.108706854
-0.1164991 -0.06253594 -0.05651571 -0.101246655 -0.030823825 -0.0955224 -0.03553817 -0.022533031
0.023196733 -0.047425706 -0.05248504 0.0794103 0.07639746 0.07666982 -0.026034186 -0.001066945
0.011622582 0.0036519137 -0.102218956 0.13448283 0.09370738 0.051142372 0.0628685 0.08447802
0.017483132 0.10258292 0.104219295 -0.16402271 -0.10591331 -0.011638476 0.08369444 0.042026132
-0.121425875 0.07929839 -0.12397613 0.12585944 0.10946813 0.0023800656 0.07613821 0.052524414
-0.068035185 0.06326881 -0.03938179 -0.12164124 0.09395203 0.002204097 -0.0070645395 0.03694122
-0.13420366 -0.047048707 0.027562002 -0.041558836 -0.10878405 0.079942696 -0.050430425 -0.024766466
0.15558936 -0.1045526 0.118414916 0.0058623194 0.0055039437 -0.082455516 0.037946258 -0.08487591
0.03851129 0.05394175 -0.02820145 0.053176444 0.105366595 0.0996376 -0.048214287 0.0376873
0.100518875 -0.10243028 -0.13268533 0.009102103 0.022690864 0.049904846 -0.08598277 0.10967063
0.10134385 -0.010952906 -0.07373335 0.09691157 -0.09428972 -0.12812382 -0.09970823 0.09382787
-0.03533788 0.112170696 0.043155845 -0.06795455 -0.059305247 -0.13029708 -0.019239707 0.06513253
-0.091226615 0.02693214 0.09764028 -0.08846488 0.06013059 -0.007934238 0.019808177 -0.032289755
-0.08828915 -0.06686086 -0.10160217 -0.10965307 0.048205942 0.006119917 0.08420797 -0.099132
0.081951894 0.034222323 0.03333458 0.019682938 0.08691515 0.05638429 -0.07374585 -0.16799095

bias_ih_l0_reverse f4 [256]
00000000: 36bd a3bc b6ea edbd 56e7 0cbc 9e33 ae3c
00000010: 8006 91bc 70f7 cf3d 9572 dd3c 6e67 9cbd
00000020: e8ee b7bd 410a 8fbc e58d ba3d 9270 1dbd
00000030: c75f 9e3d aa07 e53b 1b8c bebc 2673 8abd
00000040: ab13 c6bd 65e7 9d3b 7ead dabd 122c ae3d
00000050: b35e 92bd 6127 a03d 3de4 c33d f92f c4bd
00000060: 9db5 993d 3f29 9bbd 5950 a83d 3897 26bc
00000070: 9781 2d3c 6637 053e 2478 bb3d daa9 b3bc
00000080: 2b5e 5c3d 46f2 823d 4e7e d43d 39d5 de3b
00000090: db63 413c 98a3 a6bd a615 683c 93a8 d13c
000000a0: 4010 853d de4c 53bd 3782 93bd 9f9c 413d
000000b0: dce7 fc3d 1c79 063e 384b cebd 6a80 87bd
000000c0: 631d 68bd 70b9 cc3d 8fbc 1f3e a213 5f3d
000000d0: b666 d1bc a225 ec3d 3732 b5bd ae42 a8bd
000000e0: 5662 263d e40a 1d3e 8883 c3bd 15a3 053c
000000f0: c998 ce3c eaf5 cdbc f7f7 92bc 5c14 683c
00000100: 0f61 7b3d 0429 923c b2f6 3abc f9d2 603d
00000110: 4e98 ec3d 4060 203d 646f 74bd 842b ea3c
00000120: bad1 c83d ddd7 8e3d 9b48 58bc 0446 74bc
00000130: 93b4 47bd 3e91 763d 3781 d3bd c7bb 553c
00000140: 7e1d 103d bea8 e73d c0c1 00bd e251 5dbd
00000150: 840b 103d 20f7 0c3e 8668 78bc 2bde 8b3d
00000160: 971a 053e 42fd bc3d 9afa b9bd f585 963d
00000170: e666 81bd 2ead 813d 48de 983c 305a ccbd
00000180: 286a a4bc c508 e23d efc8 fe3c e27b f13d
00000190: 8d83 7e3b b92a 72bd 8e87 0dbd 2cab c5bc
000001a0: c18f 833d 79cf d03d cb5a ca3d 4f7e c13d
000001b0: be94 3bbc f225 8e3d e885 43bd 66b6 e33c
000001c0: 28bf 79bd f1d5 0bbd cb9b 04bd b4cd c03c
000001d0: a757 f43d 4392 1abd 9619 db3c a941 33bd
000001e0: 4514 a43b 4f8e f43d 9eb2 923d b4a1 6fbd
000001f0: 340b cc3c ff65 fcbd d74a a13d 9a10 43bd
00000200: 0223 6d3d 3c37 c23a 9f3b 863d 340c 3bbd
00000210: b3b6 f43d 83ca 01bd f86c d83d 556a 063d
00000220: 196f a73d a3e0 d8bd b2d3 4dbd c68b 14bc
00000230: 21e1 1a3d 42b9 c5bd 59be 603d 885a 5ebc
00000240: 9da3 043b 1642 eabd 100f d43d 987e c1bd
00000250: a1b2 54bc 0605 a43d 4e18 063e 1231 c0bd
00000260: 2f08 d9bd 95c3 433d 9326 8abd 163e 883d
00000270: d4c2 363c 53eb 7d3b 720f b03d d3a8 a0bd
00000280: 82a9 9b3d b948 da3d 7762 963c 0909 d03d
00000290: cf63 943d 91b5 14be 3cd5 82bd 2539 0e3d
000002a0: e936 e6bd 9e4e 8d3d 9bbc 103d e1fa aabd
000002b0: e921 89bd a140 69bd 79a6 87bd e794 7e3d
000002c0: b385 bcbd 54cb aa3d 8339 62bd 2549 243d
000002d0: 2c38 183d fcf7 e1bd 2dad 983d ef59 4b3d
000002e0: 3452 d03c fb79 a5bd c648 403d 9bf1 70bd
000002f0: fd26 aa3c 7d72 783d d764 fbbd 5050 afbd
00000300: bd70 323d 5785 c1bd d6f3 6dbd e6df 2c3d
00000310: b4ce 4939 a435 353d 2c15 9e3c 3a73 e33d
00000320: 59b4 193e 5071 573c 7d80 98bd e1cf a0bd
00000330: d953 9d3c 40ab 62bd 3640 72bd 355c a33d
00000340: 62d9 f23d 22d4 0e3e 5e39 6f3d f6f3 c83d
00000350: 9ba5 13bb e174 6bbd c08f 093e 012c 953a
00000360: 0ed0 8f3d 23ee 70bd 0d72 143d 71ad b13d
00000370: 7da8 5cbd 3498 6c3d 562b 40bd 082f c2bd
00000380: a6a1 a5bb 3e50 b0bd 0d31 90bd b186 babb
00000390: 8750 6cbd 1799 a5bd 61c6 ed3d 1f83 c13d
000003a0: 7be7 fd3d 1cc3 4b3d 0f11 0c3e 2126 a93d
000003b0: 7577 dfbc 058c 623c 24da 913d 3258 9ebd
000003c0: 6ec7 d4bd f2b6 eebc ce37 eebc 0fce cd3c
000003d0: b669 883d 6a60 bdbc f350 da3d 6306 623d
000003e0: 7d38 883d 4801 7e3c 59d1 343c 71e3 bb3d
000003f0: c229 b3bd f62b e73c ecb6 cdbd 4df0 e13d
-0.019987684 -0.11617033 -0.008600077 0.021264847 -0.017703295 0.10154617 0.027032176 -0.07636915
-0.089811146 -0.017460944 0.091090955 -0.038437434 0.07733112 0.006989439 -0.023260167 -0.06760244
-0.0967172 0.004818844 -0.10677622 0.085044995 -0.07146969 0.07820011 0.09565017 -0.095794626
0.07505343 -0.075762264 0.0821845 -0.010167889 0.010589979 0.13009414 0.091537744 -0.021931577
0.053800743 0.06393866 0.10375653 0.0068003205 0.011803593 -0.08136672 0.014165318 0.025593078
0.0649724 -0.05158698 -0.07202571 0.047268506 0.12348911 0.13132137 -0.100729406 -0.0661629
-0.05666865 0.09996307 0.15599273 0.054462083 -0.025561672 0.115306154 -0.08847468 -0.08215843
0.040621124 0.15336186 -0.09546572 0.008156558 0.025219338 -0.025141675 -0.017940504 0.01416501
0.06137186 0.017841823 -0.011411356 0.0548887 0.11552487 0.03915429 -0.059676543 0.028585203
0.09805627 0.069747664 -0.013200904 -0.014909271 -0.048756193 0.060197107 -0.1032738 0.013045258
0.035184376 0.11311482 -0.031434774 -0.054033168 0.035167232 0.13766146 -0.015161639 0.068294846
0.12998424 0.092279926 -0.090810016 0.07349769 -0.063184544 0.063318595 0.01866068 -0.099781394
-0.02007015 0.11036829 0.031101672 0.11791207 0.0038835735 -0.059122775 -0.034553103 -0.024129473
0.06423903 0.10195822 0.09880599 0.094479196 -0.011449037 0.06940831 -0.047735125 0.027796935
-0.060973316 -0.034139577 -0.03237514 0.023535587 0.11930781 -0.037737142 0.026745599 -0.04376379
0.005007299 0.11941206 0.07162975 -0.05850382 0.024907686 -0.12324142 0.07875603 -0.047623254
0.057894714 0.0014817487 0.065543406 -0.045665935 0.119489096 -0.03168727 0.10567659 0.03281625
0.08175487 -0.10589721 -0.050250717 -0.009066528 0.037812356 -0.09654476 0.05486903 -0.013571389
0.0020239123 -0.11438386 0.103544354 -0.09447974 -0.012982042 0.08008771 0.13095209 -0.093843594
-0.10597264 0.047793943 -0.06745639 0.06652467 0.011154849 0.0038745 0.08596696 -0.07844701
0.076006904 0.10658402 0.018357499 0.10157973 0.072455995 -0.14522387 -0.063883275 0.034722466
-0.11240942 0.06899761 0.03533612 -0.083486326 -0.06695921 -0.0569464 -0.06623549 0.062153723
-0.092051886 0.08339563 -0.05523063 0.04010882 0.037162945 -0.110336274 0.07454906 0.049646314
0.025429823 -0.080799066 0.046944402 -0.058824163 0.020770544 0.06065606 -0.12275093 -0.0856024
0.043564547 -0.09449261 -0.05809387 0.042205714 0.00019245857 0.04424061 0.019297205 0.11105962
0.15010203 0.013149574 -0.07446382 -0.0785215 0.01920502 -0.055339098 -0.059143268 0.079765715
0.11857869 0.1394811 0.05840432 0.09812157 -0.0022529128 -0.05748451 0.13433743 0.0011380912
0.07022105 -0.058820855 0.03624158 0.086756594 -0.05387162 0.05776234 -0.04691633 -0.09481627
-0.0050546704 -0.08609055 -0.07040606 -0.005692326 -0.057693984 -0.0808584 0.116101034 0.094488375
0.12397667 0.049746618 0.13678382 0.08259226 -0.027278641 0.013827329 0.07121685 -0.07731666
-0.10389601 -0.02913997 -0.029079344 0.02512267 0.06660788 -0.023117263 0.10659971 0.055181872
0.06651399 0.015503235 0.0110362405 0.091742404 -0.08748199 0.028219204 -0.10044655 0.11032162
